…
__________________________________________________________________________________________________
 Layer (type)                   Output Shape         Param #     Connected to                     
==================================================================================================
 input_1 (InputLayer)           [(None, 150, 400, 1  0           []                               
                                )]                                                                
                                                                                                  
 conv2d (Conv2D)                (None, 75, 200, 64)  3200        ['input_1[0][0]']                
                                                                                                  
 batch_normalization (BatchNorm  (None, 75, 200, 64)  256        ['conv2d[0][0]']                 
 alization)                                                                                       
                                                                                                  
 re_lu (ReLU)                   (None, 75, 200, 64)  0           ['batch_normalization[0][0]']    
                                                                                                  
 max_pooling2d (MaxPooling2D)   (None, 38, 100, 64)  0           ['re_lu[0][0]']                  
                                                                                                  
 conv2d_1 (Conv2D)              (None, 38, 100, 64)  36928       ['max_pooling2d[0][0]']          
                                                                                                  
 batch_normalization_1 (BatchNo  (None, 38, 100, 64)  256        ['conv2d_1[0][0]']               
 rmalization)                                                                                     
                                                                                                  
 re_lu_1 (ReLU)                 (None, 38, 100, 64)  0           ['batch_normalization_1[0][0]']  
                                                                                                  
 conv2d_2 (Conv2D)              (None, 38, 100, 64)  36928       ['re_lu_1[0][0]']                
                                                                                                  
 batch_normalization_2 (BatchNo  (None, 38, 100, 64)  256        ['conv2d_2[0][0]']               
 rmalization)                                                                                     
                                                                                                  
 global_average_pooling2d (Glob  (None, 64)          0           ['batch_normalization_2[0][0]']  
 alAveragePooling2D)                                                                              
                                                                                                  
 reshape (Reshape)              (None, 1, 1, 64)     0           ['global_average_pooling2d[0][0]'
                                                                 ]                                
                                                                                                  
 dense (Dense)                  (None, 1, 1, 8)      512         ['reshape[0][0]']                
                                                                                                  
 dense_1 (Dense)                (None, 1, 1, 64)     512         ['dense[0][0]']                  
                                                                                                  
 multiply (Multiply)            (None, 38, 100, 64)  0           ['batch_normalization_2[0][0]',  
                                                                  'dense_1[0][0]']                
                                                                                                  
 add (Add)                      (None, 38, 100, 64)  0           ['multiply[0][0]',               
                                                                  'max_pooling2d[0][0]']          
                                                                                                  
 re_lu_2 (ReLU)                 (None, 38, 100, 64)  0           ['add[0][0]']                    
                                                                                                  
 conv2d_3 (Conv2D)              (None, 38, 100, 64)  36928       ['re_lu_2[0][0]']                
                                                                                                  
 batch_normalization_3 (BatchNo  (None, 38, 100, 64)  256        ['conv2d_3[0][0]']               
 rmalization)                                                                                     
                                                                                                  
 re_lu_3 (ReLU)                 (None, 38, 100, 64)  0           ['batch_normalization_3[0][0]']  
                                                                                                  
 conv2d_4 (Conv2D)              (None, 38, 100, 64)  36928       ['re_lu_3[0][0]']                
                                                                                                  
 batch_normalization_4 (BatchNo  (None, 38, 100, 64)  256        ['conv2d_4[0][0]']               
 rmalization)                                                                                     
                                                                                                  
 global_average_pooling2d_1 (Gl  (None, 64)          0           ['batch_normalization_4[0][0]']  
 obalAveragePooling2D)                                                                            
                                                                                                  
 reshape_1 (Reshape)            (None, 1, 1, 64)     0           ['global_average_pooling2d_1[0][0
                                                                 ]']                              
                                                                                                  
 dense_2 (Dense)                (None, 1, 1, 8)      512         ['reshape_1[0][0]']              
                                                                                                  
 dense_3 (Dense)                (None, 1, 1, 64)     512         ['dense_2[0][0]']                
                                                                                                  
 multiply_1 (Multiply)          (None, 38, 100, 64)  0           ['batch_normalization_4[0][0]',  
                                                                  'dense_3[0][0]']                
                                                                                                  
 add_1 (Add)                    (None, 38, 100, 64)  0           ['multiply_1[0][0]',             
                                                                  're_lu_2[0][0]']                
                                                                                                  
 re_lu_4 (ReLU)                 (None, 38, 100, 64)  0           ['add_1[0][0]']                  
                                                                                                  
 conv2d_5 (Conv2D)              (None, 38, 100, 128  73856       ['re_lu_4[0][0]']                
                                )                                                                 
                                                                                                  
…
 add_2 (Add)                    (None, 38, 100, 128  0           ['multiply_2[0][0]',             
                                )                                 'conv2d_7[0][0]']               
                                                                                                  
 re_lu_6 (ReLU)                 (None, 38, 100, 128  0           ['add_2[0][0]']                  
                                )                                                                 
                                                                                                  
 max_pooling2d_1 (MaxPooling2D)  (None, 19, 50, 128)  0          ['re_lu_6[0][0]']                
                                                                                                  
 conv2d_8 (Conv2D)              (None, 19, 50, 256)  295168      ['max_pooling2d_1[0][0]']        
                                                                                                  
 batch_normalization_7 (BatchNo  (None, 19, 50, 256)  1024       ['conv2d_8[0][0]']               
 rmalization)                                                                                     
                                                                                                  
 re_lu_7 (ReLU)                 (None, 19, 50, 256)  0           ['batch_normalization_7[0][0]']  
                                                                                                  
 conv2d_9 (Conv2D)              (None, 19, 50, 256)  590080      ['re_lu_7[0][0]']                
                                                                                                  
 batch_normalization_8 (BatchNo  (None, 19, 50, 256)  1024       ['conv2d_9[0][0]']               
 rmalization)                                                                                     
                                                                                                  
 global_average_pooling2d_3 (Gl  (None, 256)         0           ['batch_normalization_8[0][0]']  
 obalAveragePooling2D)                                                                            
                                                                                                  
 reshape_3 (Reshape)            (None, 1, 1, 256)    0           ['global_average_pooling2d_3[0][0
                                                                 ]']                              
                                                                                                  
 dense_6 (Dense)                (None, 1, 1, 32)     8192        ['reshape_3[0][0]']              
                                                                                                  
 dense_7 (Dense)                (None, 1, 1, 256)    8192        ['dense_6[0][0]']                
                                                                                                  
 multiply_3 (Multiply)          (None, 19, 50, 256)  0           ['batch_normalization_8[0][0]',  
                                                                  'dense_7[0][0]']                
                                                                                                  
 conv2d_10 (Conv2D)             (None, 19, 50, 256)  33024       ['max_pooling2d_1[0][0]']        
                                                                                                  
 add_3 (Add)                    (None, 19, 50, 256)  0           ['multiply_3[0][0]',             
                                                                  'conv2d_10[0][0]']              
                                                                                                  
 re_lu_8 (ReLU)                 (None, 19, 50, 256)  0           ['add_3[0][0]']                  
                                                                                                  
 conv2d_11 (Conv2D)             (None, 19, 50, 256)  590080      ['re_lu_8[0][0]']                
                                                                                                  
 batch_normalization_9 (BatchNo  (None, 19, 50, 256)  1024       ['conv2d_11[0][0]']              
 rmalization)                                                                                     
                                                                                                  
 re_lu_9 (ReLU)                 (None, 19, 50, 256)  0           ['batch_normalization_9[0][0]']  
                                                                                                  
 conv2d_12 (Conv2D)             (None, 19, 50, 256)  590080      ['re_lu_9[0][0]']                
                                                                                                  
 batch_normalization_10 (BatchN  (None, 19, 50, 256)  1024       ['conv2d_12[0][0]']              
 ormalization)                                                                                    
                                                                                                  
 global_average_pooling2d_4 (Gl  (None, 256)         0           ['batch_normalization_10[0][0]'] 
 obalAveragePooling2D)                                                                            
                                                                                                  
 reshape_4 (Reshape)            (None, 1, 1, 256)    0           ['global_average_pooling2d_4[0][0
                                                                 ]']                              
                                                                                                  
 dense_8 (Dense)                (None, 1, 1, 32)     8192        ['reshape_4[0][0]']              
                                                                                                  
 dense_9 (Dense)                (None, 1, 1, 256)    8192        ['dense_8[0][0]']                
                                                                                                  
 multiply_4 (Multiply)          (None, 19, 50, 256)  0           ['batch_normalization_10[0][0]', 
                                                                  'dense_9[0][0]']                
                                                                                                  
 add_4 (Add)                    (None, 19, 50, 256)  0           ['multiply_4[0][0]',             
                                                                  're_lu_8[0][0]']                
                                                                                                  
 re_lu_10 (ReLU)                (None, 19, 50, 256)  0           ['add_4[0][0]']                  
                                                                                                  
 global_average_pooling2d_5 (Gl  (None, 256)         0           ['re_lu_10[0][0]']               
 obalAveragePooling2D)                                                                            
                                                                                                  
 dense_10 (Dense)               (None, 128)          32896       ['global_average_pooling2d_5[0][0
                                                                 ]']                              
                                                                                                  
 dropout (Dropout)              (None, 128)          0           ['dense_10[0][0]']               
                                                                                                  
 dense_11 (Dense)               (None, 1)            129         ['dropout[0][0]']                
                                                                                                  
==================================================================================================
Total params: 2,557,441
Trainable params: 2,554,241
Non-trainable params: 3,200
__________________________________________________________________________________________________
…
