…
2025-08-02 14:38:28.789866: I tensorflow/core/common_runtime/gpu/gpu_device.cc:1613] Created device /job:localhost/replica:0/task:0/device:GPU:2 with 38262 MB memory:  -> device: 2, name: NVIDIA A100-PCIE-40GB, pci bus id: 0000:47:00.0, compute capability: 8.0
  🏗️ Building Large CNN Architecture for 14525 samples...
Model: "model"
_________________________________________________________________
 Layer (type)                Output Shape              Param #   
=================================================================
 input_1 (InputLayer)        [(None, 150, 1024, 1)]    0         
                                                                 
 conv2d (Conv2D)             (None, 150, 1024, 64)     640       
                                                                 
 batch_normalization (BatchN  (None, 150, 1024, 64)    256       
 ormalization)                                                   
                                                                 
 conv2d_1 (Conv2D)           (None, 150, 1024, 64)     36928     
                                                                 
 max_pooling2d (MaxPooling2D  (None, 75, 512, 64)      0         
 )                                                               
                                                                 
 dropout (Dropout)           (None, 75, 512, 64)       0         
                                                                 
 conv2d_2 (Conv2D)           (None, 75, 512, 128)      73856     
                                                                 
 batch_normalization_1 (Batc  (None, 75, 512, 128)     512       
 hNormalization)                                                 
                                                                 
 conv2d_3 (Conv2D)           (None, 75, 512, 128)      147584    
                                                                 
 max_pooling2d_1 (MaxPooling  (None, 37, 256, 128)     0         
 2D)                                                             
                                                                 
 dropout_1 (Dropout)         (None, 37, 256, 128)      0         
                                                                 
 conv2d_4 (Conv2D)           (None, 37, 256, 256)      295168    
                                                                 
 batch_normalization_2 (Batc  (None, 37, 256, 256)     1024      
 hNormalization)                                                 
                                                                 
 conv2d_5 (Conv2D)           (None, 37, 256, 256)      590080    
                                                                 
 global_average_pooling2d (G  (None, 256)              0         
 lobalAveragePooling2D)                                          
                                                                 
 dropout_2 (Dropout)         (None, 256)               0         
                                                                 
 dense (Dense)               (None, 256)               65792     
                                                                 
 dropout_3 (Dropout)         (None, 256)               0         
                                                                 
 dense_1 (Dense)             (None, 128)               32896     
                                                                 
 dropout_4 (Dropout)         (None, 128)               0         
                                                                 
 csi_output (Dense)          (None, 1)                 129       
                                                                 
=================================================================
Total params: 1,244,865
Trainable params: 1,243,969
Non-trainable params: 896
_________________________________________________________________

Starting training...
Epoch 1/50
2025-08-02 14:38:30.954818: E tensorflow/core/grappler/optimizers/meta_optimizer.cc:954] layout failed: INVALID_ARGUMENT: Size of values 0 does not match size of permutation 4 @ fanin shape inmodel/dropout/dropout/SelectV2-2-TransposeNHWCToNCHW-LayoutOptimizer
…
